…
å¯ä»¥å¢åŠ æ¨¡å‹åœ¨ä¸åŒé¢†åŸŸå’Œæ ·å¼çš„æ–‡æœ¬ä¸Šçš„æ³›åŒ–èƒ½åŠ›å®éªŒè¯æ˜ï¼ŒTrOCRæ¨¡å‹åœ¨æ‰“å°æ–‡æœ¬ã€æ‰‹å†™æ–‡æœ¬å’Œåœºæ™¯æ–‡æœ¬è¯†åˆ«ä»»åŠ¡ä¸Šå–å¾—äº†ä¼˜å¼‚çš„æ€§èƒ½è¡¨ç°ï¼Œè¶…è¿‡äº†å½“å‰çš„state-of-the-artæ¨¡å‹ã€‚è¯¥è®ºæ–‡çš„è´¡çŒ®åœ¨äºå°†Transformeråº”ç”¨äºOCRä»»åŠ¡ï¼Œå¹¶ä¸”é€šè¿‡é¢„è®­ç»ƒæ¨¡å‹çš„åˆ©ç”¨æé«˜äº†OCRçš„å‡†ç¡®æ€§å’Œæ³›åŒ–èƒ½åŠ›æ¶æ„ï¼šmodel(VisionEncoderDecoderModel) = encoder(DeiT)+decoder(TrOCRForCausalLM)1234567891011121314151617181920212223242526272829303132333435363738394041DeiTModel(  (embeddings): DeiTEmbeddings(    (patch_embeddings): DeiTPatchEmbeddings(      (projection): Conv2d(3, 384, kernel_size=(16, 16), stride=(16, 16))    )    (dropout): Dropout(p=0.0, inplace=False)  )  (encoder): DeiTEncoder(    (layer): ModuleList(      (0): DeiTLayer(        (attention): DeiTAttention(          (attention): DeiTSelfAttention(            (query): Linear(in_features=384, out_features=384, bias=True)            (key): Linear(in_features=384, out_features=384, bias=True)            (value): Linear(in_features=384, out_features=384, bias=True)            (dropout): Dropout(p=0.0, inplace=False)          )          (output): DeiTSelfOutput(            (dense): Linear(in_features=384, out_features=384, bias=True)            (dropout): Dropout(p=0.0, inplace=False)          )        )        (intermediate): DeiTIntermediate(          (dense): Linear(in_features=384, out_features=1536, bias=True)          (intermediate_act_fn): GELUActivation()        )        (output): DeiTOutput(          (dense): Linear(in_features=1536, out_features=384, bias=True)          (dropout): Dropout(p=0.0, inplace=False)        )        (layernorm_before): LayerNorm((384,), eps=1e-12, elementwise_affine=True)        (layernorm_after): LayerNorm((384,), eps=1e-12, elementwise_affine=True)      ) * 12    )  )  (layernorm): LayerNorm((384,), eps=1e-12, elementwise_affine=True)  (pooler): DeiTPooler(    (dense): Linear(in_features=384, out_features=384, bias=True)    (activation): Tanh()  ))12# é€šè¿‡çº¿æ€§å±‚å°†ç¼–ç å™¨å’Œè§£ç å™¨è¿æ¥åˆ°äº†ä¸€èµ·enc_to_dec_proj = nn.Linear(self.encoder.config.hidden_size, self.decoder.config.hidden_size)1234567891011121314151617181920212223242526272829303132TrOCRForCausalLM(  (model): TrOCRDecoderWrapper(    (decoder): TrOCRDecoder(      (embed_tokens): Embedding(11318, 256, padding_idx=1)      (embed_positions): TrOCRLearnedPositionalEmbedding(514, 256)      (layernorm_embedding): LayerNorm((256,), eps=1e-05, elementwise_affine=True)      (layers): ModuleList(        (0): TrOCRDecoderLayer(          (self_attn): TrOCRAttention(            (k_proj): Linear(in_features=256, out_features=256, bias=True)            (v_proj): Linear(in_features=256, out_features=256, bias=True)            (q_proj): Linear(in_features=256, out_features=256, bias=True)            (out_proj): Linear(in_features=256, out_features=256, bias=True)          )          (activation_fn): ReLU()          (self_attn_layer_norm): LayerNorm((256,), eps=1e-05, elementwise_affine=True)          (encoder_attn): TrOCRAttention(            (k_proj): Linear(in_features=384, out_features=256, bias=True)            (v_proj): Linear(in_features=384, out_features=256, bias=True)            (q_proj): Linear(in_features=256, out_features=256, bias=True)            (out_proj): Linear(in_features=256, out_features=256, bias=True)          )          (encoder_attn_layer_norm): LayerNorm((256,), eps=1e-05, elementwise_affine=True)          (fc1): Linear(in_features=256, out_features=1024, bias=True)          (fc2): Linear(in_features=1024, out_features=256, bias=True)          (final_layer_norm): LayerNorm((256,), eps=1e-05, elementwise_affine=True)        ) * 6      )    )  )  (output_projection): Linear(in_features=256, out_features=11318, bias=False))å®ç°ç»†èŠ‚:æ•°æ®é›†:</content>
	</entry>
	<entry>
		<title>transformerå­¦ä¹ </title>
		<url>/article/44700.html</url>
		<content>TransformerAttention Is All You Needè®ºæ–‡è§£è¯»: Attention is All you needHugging Faceçš„GitHubä»£ç åº“é€šå¸¸è€Œè¨€ï¼Œç»å¤§éƒ¨åˆ†NLPé—®é¢˜å¯ä»¥å½’å…¥ä¸Šå›¾æ‰€ç¤ºçš„å››ç±»ä»»åŠ¡ä¸­åºåˆ—æ ‡æ³¨: è¿™æ˜¯æœ€å…¸å‹çš„NLPä»»åŠ¡ï¼Œ
…
