…
1415161718192021222324252627282930313233343536import torchclass MyModel(torch.nn.Module):    def __init__(self):        super().__init__()        self.layer1 = torch.nn.Sequential(            torch.nn.Linear(3, 4),            torch.nn.Linear(4, 3),        )        self.layer2 = torch.nn.Linear(3, 6)        self.layer3 = torch.nn.Sequential(            torch.nn.Linear(6, 7),            torch.nn.Linear(7, 5),        )    def forward(self, x):        x = self.layer1(x)        x = self.layer2(x)        x = self.layer3(x)        return xnet = MyModel()print(net)MyModel(  (layer1): Sequential(    (0): Linear(in_features=3, out_features=4, bias=True)    (1): Linear(in_features=4, out_features=3, bias=True)  )  (layer2): Linear(in_features=3, out_features=6, bias=True)  (layer3): Sequential(    (0): Linear(in_features=6, out_features=7, bias=True)    (1): Linear(in_features=7, out_features=5, bias=True)  ))查看参数123456789101112131415161718192021222324252627282930313233343536373839404142434445464748495051for layer in net.modules():    print(type(layer))  # 查看每一层的类型    # print(layer)&lt;class '__main__.MyModel'&gt;&lt;class 'torch.nn.modules.container.Sequential'&gt;&lt;class 'torch.nn.modules.linear.Linear'&gt;&lt;class 'torch.nn.modules.linear.Linear'&gt;&l
…
weight torch.Size([6, 3])layer2.bias torch.Size([6])layer3.0.weight torch.Size([7, 6])layer3.0.bias torch.Size([7])layer3.1.weight torch.Size([5, 7])layer3.1.bias torch.Size([5])模型保存|加载123456# 1、加载模型+参数net = torch.load(&quot;resnet50.pth&quot;)# 2、已有模型,加载预训练参数resnet50 = models.resnet50(weights=None)  resnet50.load_state_dict(torch.load(&quot;resnet58_weight.pth&quot;))网络的修改123456789101112131415161718192021222324252627282930313233from torch import nnfrom torchvision import modelsalexnet = models.alexnet(weights=models.AlexNet_Weights.DEFAULT)print(alexnet)AlexNet(  (features): Sequential(    (0): Conv2d(3, 64, kernel_size=(11, 11), stride=(4, 4), padding=(2, 2))    (1): ReLU(inplace=True)    (2): MaxPool2d(kernel_size=3, stride=2, padding=0, dilation=1, ceil_mode=False)    (3): Conv2d(64, 192, kernel_size=(5, 5), stride=(1, 1), padding=(2, 2))    (4): ReLU(inplace=True)    (5): MaxPool2d(kernel_size=3, stride=2, padding=0, dilation=1, ceil_mode=False)    (6): Conv2d(192, 384, kernel_size=(3, 3), stride=(1, 1), padding=(1, 1))    (7): ReLU(inplace=True)    (8): Conv2d(384, 256, kernel_size=(3, 3), stride=(1, 1), padding=(1, 1))    (9): ReLU(inplace=True)    (10): Conv2d(256, 256, kernel_size=(3, 3), stride=(1, 1), padding=(1, 1))    (11): ReLU(inplace=True)    (12): MaxPool2d(kernel_size=3, stride=2, padding=0, dilation=1, ceil_mode=False)  )  (avgpool): AdaptiveAvgPool2d(output_size=(6, 6))  (classifier): Sequential(    (0): Dropout(p=0.5, inplace=False)    (1): Linear(in_features=9216, out_features=4096, bias=True)    (2): ReLU(inplace=True)    (3): Dropout(p=0.5, inplace=False)    (4): Linear(in_features=4096, out_features=4096, bias=True)    (5): ReLU(inplace=True)    (6): Linear(in_features=4096, out_features=1000, bias=True)  ))修改网络结构…# 1、-----删除网络的最后一层-----# del alexnet.classifierdel alexnet.classifier[6]print(alexnet)AlexNet(  (features): Sequential(    (0): Conv2d(3, 64, kernel_size=(11, 11), stride=(4, 4), padding=(2, 2))    (1): ReLU(inplace=True)    (2): MaxPool2d(kernel_size=3, stride=2, padding=0, dilation=1, ceil_mode=False)    (3): Conv2d(64, 192, kernel_size=(5, 5), stride=(1, 1), padding=(2, 2))    (4): ReLU(inplace=True)    (5): MaxPool2d(kernel_size=3, stride=2, padding=0, dilation=1, ceil_mode=False)    (6): Conv2d(192, 384, kernel_size=(3, 3), stride=(1, 1), padding=(1, 1))    (7): ReLU(inplace=True)    (8): Conv2d(384, 256, kernel_size=(3, 3), stride=(1, 1), padding=(1, 1))    (9): ReLU(inplace=True)    (10): Conv2d(256, 256, kernel_size=(3, 3), stride=(1, 1), padding=(1, 1))    (11): ReLU(inplace=True)    (12): MaxPool2d(kernel_size=3, stride=2, padding=0, dilation=1, ceil_mode=False)  )  (avgpool): AdaptiveAvgPool2d(output_size=(6, 6))  (classifier): Sequential(    (0): Dropout(p=0.5, inplace=False)    (1): Linear(in_features=9216, out_features=4096, bias=True)    (2): ReLU(inplace=True)    (3): Dropout(p=0.5, inplace=False)    (4): Linear(in_features=4096, out_features=4096, bias=True)    (5): ReLU(inplace=True)  ))# 2、-----删除网络的最后多层-----alexnet.classifier = alexnet.classifier[:-2]print(alexnet)AlexNet(  (features): Sequential(    (0): Conv2d(3, 64, kernel_size=(11, 11), stride=(4, 4), padding=(2, 2))    (1): ReLU(inplace=True)    (2): MaxPool2d(kernel_size=3, stride=2, padding=0, dilation=1, ceil_mode=False)    (3): Conv2d(64, 192, kernel_size=(5, 5), stride=(1, 1), padding=(2, 2))    (4): ReLU(inplace=True)    (5): MaxPool2d(kernel_size=3, stride=2, padding=0, dilation=1, ceil_mode=False)    (6): Conv2d(192, 384, kernel_size=(3, 3), stride=(1, 1), padding=(1, 1))    (7): ReLU(inplace=True)    (8): Conv2d(384, 256, kernel_size=(3, 3), stride=(1, 1), padding=(1, 1))    (9): ReLU(inplace=True)    (10): Conv2d(256, 256, kernel_size=(3, 3), stride=(1, 1), padding=(1, 1))    (11): ReLU(inplace=True)    (12): MaxPool2d(kernel_size=3, stride=2, padding=0, dilation=1, ceil_mode=False)  )  (avgpool): AdaptiveAvgPool2d(output_size=(6, 6))  (classifier): Sequential(    (0): Dropout(p=0.5, inplace=False)    (1): Linear(in_features=9216, out_features=4096, bias=True)    (2): ReLU(inplace=True)    (3): Dropout(p=0.5, inplace=False)  ))# 3、-----修改网络的某一层-----alexnet.classifier[6] = nn.Linear(in_features=4096, out_features=1024)print(alexnet)AlexNet(  (features): Sequential(    (0): Conv2d(3, 64, kernel_size=(11, 11), stride=(4, 4), padding=(2, 2))    (1): ReLU(inplace=True)    (2): MaxPool2d(kernel_size=3, stride=2, padding=0, dilation=1, ceil_mode=False)    (3): Conv2d(64, 192, kernel_size=(5, 5), stride=(1, 1), padding=(2, 2))    (4): ReLU(inplace=True)    (5): MaxPool2d(kernel_size=3, stride=2, padding=0, dilation=1, ceil_mode=False)    (6): Conv2d(192, 384, kernel_size=(3, 3), stride=(1, 1), padding=(1, 1))    (7): ReLU(inplace=True)    (8): Conv2d(384, 256, kernel_size=(3, 3), stride=(1, 1), padding=(1, 1))    (9): ReLU(inplace=True)    (10): Conv2d(256, 256, kernel_size=(3, 3), stride=(1, 1), padding=(1, 1))    (11): ReLU(inplace=True)    (12): MaxPool2d(kernel_size=3, stride=2, padding=0, dilation=1, ceil_mode=False)  )  (avgpool): AdaptiveAvgPool2d(output_size=(6, 6))  (classifier): Sequential(    (0): Dropout(p=0.5, inplace=False)    (1): Linear(in_features=9216, out_features=4096, bias=True)    (2): ReLU(inplace=True)    (3): Linear(in_features=4096, out_features=1024, bias=True)  ))# 4、-----网络添加层，每次添加一层-----alexnet.classifier.add_module('7', nn.ReLU(inplace=True))alexnet.classifier.add_module('8', nn.Linear(in_features=1024, out_features=20))print(alexnet)AlexNet(  (features): Sequential(    (0): Conv2d(3, 64, kernel_size=(11, 11), stride=(4, 4), padding=(2, 2))    (1): ReLU(inplace=True)    (2): MaxPool2d(kernel_size=3, stride=2, padding=0, dilation=1, ceil_mode=False)    (3): Conv2d(64, 192, kernel_size=(5, 5), stride=(1, 1), padding=(2, 2))    (4): ReLU(inplace=True)    (5): MaxPool2d(kernel_size=3, stride=2, padding=0, dilation=1, ceil_mode=False)    (6): Conv2d(192, 384, kernel_size=(3, 3), stride=(1, 1), padding=(1, 1))    (7): ReLU(inplace=True)    (8): Conv2d(384, 256, kernel_size=(3, 3), stride=(1, 1), padding=(1, 1))    (9): ReLU(inplace=True)    (10): Conv2d(256, 256, kernel_size=(3, 3), stride=(1, 1), padding=(1, 1))    (11): ReLU(inplace=True)    (12): MaxPool2d(kernel_size=3, stride=2, padding=0, dilation=1, ceil_mode=False)  )  (avgpool): AdaptiveAvgPool2d(output_size=(6, 6))  (classifier): Sequential(    (0): Dropout(p=0.5, inplace=False)    (1): Linear(in_features=9216, out_features=4096, bias=True)    (2): ReLU(inplace=True)    (3): Linear(in_features=4096, out_features=1024, bias=True)    (4): ReLU(inplace=True)    (5): Linear(in_features=1024, out_features=20, bias=True)  ))参数冻结123456789101112131415161718192021222324252627# 任务一∶# 1、将模型A作为backbone，修改为模型B# 2、模型A的预训练参数加载到模型B上resnet_modified = resnet50()new_weights_dict = resnet_modified.state_dict()resnet = models.resnet50(weights=models.ResNet50_Weights.DEFAULT)weights_dict = resnet.state_dict()for k in weights_dict.keys():    if k in new_weights_dict.keys() and not k.st
…
former架构作为其基础模型，其中包括编码器和解码器。编码器用于提取图像特征，解码器用于生成识别的文本序列预训练模型的应用：TrOCR利用预训练的图像和文本模型作为编码器和解码器，如ViT、RoBERTa等。这些预训练模型能够提供丰富的视觉和语言表示能力，有助于提高OCR的准确性大规模合成数据集：为了进行预训练和微调，TrOCR使用了大规模的合成数据集，包括数百万张打印文本图像和手写文本图像。这样可以增加模型在不同领域和样式的文本上的泛化能力实验证明，TrOCR模型在打印文本、手写文本和场景文本识别任务上取得了优异的性能表现，超过了当前的state-of-the-art模型。该论文的贡献在于将Transformer应用于OCR任务，并且通过预训练模型的利用提高了OCR的准确性和泛化能力架构：model(VisionEncoderDecoderModel) = encoder(DeiT)+decoder(TrOCRForCausalLM)1234567891011121314151617181920212223242526272829303132333435363738394041DeiTModel(  (embeddings): DeiTEmbeddings(    (patch_embeddings): DeiTPatchEmbeddings(      (projection): Conv2d(3, 384, kernel_size=(16, 16), stride=(16, 16))    )    (dropout): Dropout(p=0.0, inplace=False)  )  (encoder): DeiTEncoder(    (layer): ModuleList(      (0): DeiTLayer(        (attention): DeiTAttention(          (attention): DeiTSelfAttention(            (query): Linear(in_features=384, out_features=384, bias=True)            (key): Linear(in_features=384, out_features=384, bias=True)            (value): Linear(in_features=384, out_features=384, bias=True)            (dropout): Dropout(p=0.0, inplace=False)          )          (output): DeiTSelfOutput(            (dense): Linear(in_features=384, out_features=384, bias=True)            (dropout): Dropout(p=0.0, inplace=False)          )        )        (intermediate): DeiTIntermediate(          (dense): Linear(in_features=384, out_features=1536, bias=True)          (intermediate_act_fn): GELUActivation()        )        (output): DeiTOutput(          (dense): Linear(in_features=1536, out_features=384, bias=True)          (dropout): Dropout(p=0.0, inplace=False)        )        (layernorm_before): LayerNorm((384,), eps=1e-12, elementwise_affine=True)        (layernorm_after): LayerNorm((384,), eps=1e-12, elementwise_affine=True)      ) * 12    )  )  (layernorm): LayerNorm((384,), eps=1e-12, elementwise_affine=True)  (pooler): DeiTPooler(    (dense): Linear(in_features=384, out_features=384, bias=True)    (activation): Tanh()  ))12# 通过线性层将编码器和解码器连接到了一起enc_to_dec_proj = nn.Linear(self.encoder.config.hidden_size, self.decoder.config.hidden_size)1234567891011121314151617181920212223242526272829303132TrOCRForCausalLM(  (model): TrOCRDecoderWrapper(    (decoder): TrOCRDecoder(      (embed_tokens): Embedding(11318, 256, padding_idx=1)      (embed_positions): TrOCRLearnedPositionalEmbedding(514, 256)      (layernorm_embedding): LayerNorm((256,), eps=1e-05, elementwise_affine=True)      (layers): ModuleList(        (0): TrOCRDecoderLayer(          (self_attn): TrOCRAttention(            (k_proj): Linear(in_features=256, out_features=256, bias=True)            (v_proj): Linear(in_features=256, out_features=256, bias=True)            (q_proj): Linear(in_features=256, out_features=256, bias=True)            (out_proj): Linear(in_features=256, out_features=256, bias=True)          )          (activation_fn): ReLU()          (self_attn_layer_norm): LayerNorm((256,), eps=1e-05, elementwise_affine=True)          (encoder_attn): TrOCRAttention(            (k_proj): Linear(in_features=384, out_features=256, bias=True)            (v_proj): Linear(in_features=384, out_features=256, bias=True)            (q_proj): Linear(in_features=256, out_features=256, bias=True)            (out_proj): Linear(in_features=256, out_features=256, bias=True)          )          (encoder_attn_layer_norm): LayerNorm((256,), eps=1e-05, elementwise_affine=True)          (fc1): Linear(in_features=256, out_features=1024, bias=True)          (fc2): Linear(in_features=1024, out_features=256, bias=True)          (final_layer_norm): LayerNorm((256,), eps=1e-05, elementwise_affine=True)        ) * 6      )    )  )  (output_projection): Linear(in_features=256, out_features=11318, bias=False))实现细节:数据集:</content>
	</entry>
	<entry>
		<title>transformer学习</title>
		<url>/article/44700.html</url>
		<content>LLM总览ChatGPT复现之路LLM物种进化图大模型训练流程图动画科普LLM大模型进阶之路：为何GPT之外一定要关注LLaMA四大步骤预训练监督式微调奖励建模强化学习数据集互联网公开数据集（2万亿token）问题对（1万-10万）人工反馈评价（10万-100万）人工提示词（1万-10万）算法语言模型（预测下一个token）语言模型（预测下一个token）二元分类器（输出奖励）强化学习（最大化奖励）模型基础模型SFT模型奖励模型强化学习模型所需资源千块GPU训练数月几十
…
